…
    Test set w/o outliers:       60.01%
Training 80% data w/ outliers (line kernel)
Model: "inc_line"
__________________________________________________________________________________________________
Layer (type)                    Output Shape         Param #     Connected to                     
==================================================================================================
inc_line_input (InputLayer)     [(None, 12, 15, 1)]  0                                            
__________________________________________________________________________________________________
inc_line_convA_1 (Conv2D)       (None, 12, 15, 32)   416         inc_line_input[0][0]             
__________________________________________________________________________________________________
inc_line_convB_1 (Conv2D)       (None, 12, 15, 32)   512         inc_line_input[0][0]             
__________________________________________________________________________________________________
inc_line_conc_1 (Concatenate)   (None, 12, 15, 64)   0           inc_line_convA_1[0][0]           
                                                                 inc_line_convB_1[0][0]           
__________________________________________________________________________________________________
inc_line_bnorm_1 (BatchNormaliz (None, 12, 15, 64)   256         inc_line_conc_1[0][0]            
__________________________________________________________________________________________________
inc_line_convA_2 (Conv2D)       (None, 12, 15, 64)   49216       inc_line_bnorm_1[0][0]           
__________________________________________________________________________________________________
inc_line_convB_2 (Conv2D)       (None, 12, 15, 64)   61504       inc_line_bnorm_1[0][0]           
__________________________________________________________________________________________________
inc_line_conc_2 (Concatenate)   (None, 12, 15, 128)  0           inc_line_convA_2[0][0]           
                                                                 inc_line_convB_2[0][0]           
__________________________________________________________________________________________________
inc_line_bnorm_2 (BatchNormaliz (None, 12, 15, 128)  512         inc_line_conc_2[0][0]            
__________________________________________________________________________________________________
inc_line_convA_3 (Conv2D)       (None, 12, 15, 32)   49184       inc_line_bnorm_2[0][0]           
__________________________________________________________________________________________________
inc_line_convB_3 (Conv2D)       (None, 12, 15, 32)   61472       inc_line_bnorm_2[0][0]           
__________________________________________________________________________________________________
inc_line_conc_3 (Concatenate)   (None, 12, 15, 64)   0           inc_line_convA_3[0][0]           
                                                                 inc_line_convB_3[0][0]           
__________________________________________________________________________________________________
inc_line_bnorm_3 (BatchNormaliz (None, 12, 15, 64)   256         inc_line_conc_3[0][0]            
__________________________________________________________________________________________________
inc_line_drop (Dropout)         (None, 12, 15, 64)   0           inc_line_bnorm_3[0][0]           
__________________________________________________________________________________________________
inc_line_flat (Flatten)         (None, 11520)        0           inc_line_drop[0][0]              
__________________________________________________________________________________________________
h11_output (Dense)              (None, 1)            11521       inc_line_flat[0][0]              
__________________________________________________________________________________________________
h21_output (Dense)              (None, 1)            11521       inc_line_flat[0][0]              
==================================================================================================
Total params: 246,370
Trainable params: 245,858
Non-trainable params: 512
__________________________________________________________________________________________________
Accuracy for h_11: 94.17%
Accuracy for h_21: 46.01%
Model: "inc_line"
__________________________________________________________________________________________________
…
Training 30% data w/o outliers (line kernel)
Accuracy for h_11: 86.95%
Accuracy for h_21: 31.27%
Model: "inc_square"
__________________________________________________________________________________________________
Layer (type)                    Output Shape         Param #     Connected to                     
==================================================================================================
inc_square_input (InputLayer)   [(None, 12, 15, 1)]  0                                            
__________________________________________________________________________________________________
inc_square_convA_1 (Conv2D)     (None, 12, 15, 32)   320         inc_square_input[0][0]           
__________________________________________________________________________________________________
inc_square_convB_1 (Conv2D)     (None, 12, 15, 32)   832         inc_square_input[0][0]           
__________________________________________________________________________________________________
inc_square_conc_1 (Concatenate) (None, 12, 15, 64)   0           inc_square_convA_1[0][0]         
                                                                 inc_square_convB_1[0][0]         
__________________________________________________________________________________________________
inc_square_bnorm_1 (BatchNormal (None, 12, 15, 64)   256         inc_square_conc_1[0][0]          
__________________________________________________________________________________________________
inc_square_convA_2 (Conv2D)     (None, 12, 15, 64)   36928       inc_square_bnorm_1[0][0]         
__________________________________________________________________________________________________
inc_square_convB_2 (Conv2D)     (None, 12, 15, 64)   102464      inc_square_bnorm_1[0][0]         
__________________________________________________________________________________________________
inc_square_conc_2 (Concatenate) (None, 12, 15, 128)  0           inc_square_convA_2[0][0]         
                                                                 inc_square_convB_2[0][0]         
__________________________________________________________________________________________________
inc_square_bnorm_2 (BatchNormal (None, 12, 15, 128)  512         inc_square_conc_2[0][0]          
__________________________________________________________________________________________________
inc_square_convA_3 (Conv2D)     (None, 12, 15, 32)   36896       inc_square_bnorm_2[0][0]         
__________________________________________________________________________________________________
inc_square_convB_3 (Conv2D)     (None, 12, 15, 32)   102432      inc_square_bnorm_2[0][0]         
__________________________________________________________________________________________________
inc_square_conc_3 (Concatenate) (None, 12, 15, 64)   0           inc_square_convA_3[0][0]         
                                                                 inc_square_convB_3[0][0]         
__________________________________________________________________________________________________
inc_square_bnorm_3 (BatchNormal (None, 12, 15, 64)   256         inc_square_conc_3[0][0]          
__________________________________________________________________________________________________
inc_square_drop (Dropout)       (None, 12, 15, 64)   0           inc_square_bnorm_3[0][0]         
__________________________________________________________________________________________________
inc_square_flat (Flatten)       (None, 11520)        0           inc_square_drop[0][0]            
__________________________________________________________________________________________________
h11_output (Dense)              (None, 1)            11521       inc_square_flat[0][0]            
__________________________________________________________________________________________________
h21_output (Dense)              (None, 1)            11521       inc_square_flat[0][0]            
==================================================================================================
Total params: 303,938
Trainable params: 303,426
Non-trainable params: 512
__________________________________________________________________________________________________
Training 80% data w/ outliers (square kernel)
Accuracy for h_11: 78.07%
Accuracy for h_21: 32.45%
…
Training 30% data w/o outliers (square kernel)
Accuracy for h_11: 68.86%
Accuracy for h_21: 21.97%
Model: "seq_small"
__________________________________________________________________________________________________
Layer (type)                    Output Shape         Param #     Connected to                     
==================================================================================================
seq_small_input (InputLayer)    [(None, 12, 15, 1)]  0                                            
__________________________________________________________________________________________________
seq_small_conv_1 (Conv2D)       (None, 12, 15, 180)  1800        seq_small_input[0][0]            
__________________________________________________________________________________________________
seq_small_bnorm_1 (BatchNormali (None, 12, 15, 180)  720         seq_small_conv_1[0][0]           
__________________________________________________________________________________________________
seq_small_conv_2 (Conv2D)       (None, 12, 15, 100)  162100      seq_small_bnorm_1[0][0]          
__________________________________________________________________________________________________
seq_small_bnorm_2 (BatchNormali (None, 12, 15, 100)  400         seq_small_conv_2[0][0]           
__________________________________________________________________________________________________
seq_small_conv_3 (Conv2D)       (None, 12, 15, 40)   36040       seq_small_bnorm_2[0][0]          
__________________________________________________________________________________________________
seq_small_bnorm_3 (BatchNormali (None, 12, 15, 40)   160         seq_small_conv_3[0][0]           
__________________________________________________________________________________________________
seq_small_conv_4 (Conv2D)       (None, 12, 15, 20)   7220        seq_small_bnorm_3[0][0]          
__________________________________________________________________________________________________
seq_small_bnorm_4 (BatchNormali (None, 12, 15, 20)   80          seq_small_conv_4[0][0]           
__________________________________________________________________________________________________
seq_small_drop (Dropout)        (None, 12, 15, 20)   0           seq_small_bnorm_4[0][0]          
__________________________________________________________________________________________________
seq_small_flat (Flatten)        (None, 3600)         0           seq_small_drop[0][0]             
__________________________________________________________________________________________________
h11_output (Dense)              (None, 1)            3601        seq_small_flat[0][0]             
__________________________________________________________________________________________________
h21_output (Dense)              (None, 1)            3601        seq_small_flat[0][0]             
==================================================================================================
Total params: 215,722
Trainable params: 215,042
Non-trainable params: 680
__________________________________________________________________________________________________
Training 80% data w/ outliers (small kernel)
Accuracy for h_11: 76.30%
Accuracy for h_21: 28.52%
…
Training 30% data w/o outliers (small kernel)
Accuracy for h_11: 64.40%
Accuracy for h_21: 20.53%
Model: "seq_large"
__________________________________________________________________________________________________
Layer (type)                    Output Shape         Param #     Connected to                     
==================================================================================================
seq_large_input (InputLayer)    [(None, 12, 15, 1)]  0                                            
__________________________________________________________________________________________________
seq_large_conv_1 (Conv2D)       (None, 12, 15, 180)  4680        seq_large_input[0][0]            
__________________________________________________________________________________________________
seq_large_bnorm_1 (BatchNormali (None, 12, 15, 180)  720         seq_large_conv_1[0][0]           
__________________________________________________________________________________________________
seq_large_conv_2 (Conv2D)       (None, 12, 15, 100)  450100      seq_large_bnorm_1[0][0]          
__________________________________________________________________________________________________
seq_large_bnorm_2 (BatchNormali (None, 12, 15, 100)  400         seq_large_conv_2[0][0]           
__________________________________________________________________________________________________
seq_large_conv_3 (Conv2D)       (None, 12, 15, 40)   100040      seq_large_bnorm_2[0][0]          
__________________________________________________________________________________________________
seq_large_bnorm_3 (BatchNormali (None, 12, 15, 40)   160         seq_large_conv_3[0][0]           
__________________________________________________________________________________________________
seq_large_conv_4 (Conv2D)       (None, 12, 15, 20)   20020       seq_large_bnorm_3[0][0]          
__________________________________________________________________________________________________
seq_large_bnorm_4 (BatchNormali (None, 12, 15, 20)   80          seq_large_conv_4[0][0]           
__________________________________________________________________________________________________
seq_large_drop (Dropout)        (None, 12, 15, 20)   0           seq_large_bnorm_4[0][0]          
__________________________________________________________________________________________________
seq_large_flat (Flatten)        (None, 3600)         0           seq_large_drop[0][0]             
__________________________________________________________________________________________________
h11_output (Dense)              (None, 1)            3601        seq_large_flat[0][0]             
__________________________________________________________________________________________________
h21_output (Dense)              (None, 1)            3601        seq_large_flat[0][0]             
==================================================================================================
Total params: 583,402
Trainable params: 582,722
Non-trainable params: 680
__________________________________________________________________________________________________
Training 80% data w/ outliers (large kernel)
Accuracy for h_11: 77.19%
Accuracy for h_21: 29.53%
…
