…
    Test set w/o outliers:       60.01%
Training 80% data w/ outliers (line kernel)
Model: "inc_line"
__________________________________________________________________________________________________
Layer (type)                    Output Shape         Param #     Connected to                     
==================================================================================================
inc_line_input (InputLayer)     [(None, 12, 15, 1)]  0                                            
__________________________________________________________________________________________________
inc_line_convA_1 (Conv2D)       (None, 12, 15, 32)   416         inc_line_input[0][0]             
__________________________________________________________________________________________________
inc_line_convB_1 (Conv2D)       (None, 12, 15, 32)   512         inc_line_input[0][0]             
__________________________________________________________________________________________________
inc_line_conc_1 (Concatenate)   (None, 12, 15, 64)   0           inc_line_convA_1[0][0]           
                                                                 inc_line_convB_1[0][0]           
__________________________________________________________________________________________________
inc_line_bnorm_1 (BatchNormaliz (None, 12, 15, 64)   256         inc_line_conc_1[0][0]            
__________________________________________________________________________________________________
inc_line_convA_2 (Conv2D)       (None, 12, 15, 64)   49216       inc_line_bnorm_1[0][0]           
__________________________________________________________________________________________________
inc_line_convB_2 (Conv2D)       (None, 12, 15, 64)   61504       inc_line_bnorm_1[0][0]           
__________________________________________________________________________________________________
inc_line_conc_2 (Concatenate)   (None, 12, 15, 128)  0           inc_line_convA_2[0][0]           
                                                                 inc_line_convB_2[0][0]           
__________________________________________________________________________________________________
inc_line_bnorm_2 (BatchNormaliz (None, 12, 15, 128)  512         inc_line_conc_2[0][0]            
__________________________________________________________________________________________________
inc_line_convA_3 (Conv2D)       (None, 12, 15, 32)   49184       inc_line_bnorm_2[0][0]           
__________________________________________________________________________________________________
inc_line_convB_3 (Conv2D)       (None, 12, 15, 32)   61472       inc_line_bnorm_2[0][0]           
__________________________________________________________________________________________________
inc_line_conc_3 (Concatenate)   (None, 12, 15, 64)   0           inc_line_convA_3[0][0]           
                                                                 inc_line_convB_3[0][0]           
__________________________________________________________________________________________________
inc_line_bnorm_3 (BatchNormaliz (None, 12, 15, 64)   256         inc_line_conc_3[0][0]            
__________________________________________________________________________________________________
inc_line_drop (Dropout)         (None, 12, 15, 64)   0           inc_line_bnorm_3[0][0]           
__________________________________________________________________________________________________
inc_line_flat (Flatten)         (None, 11520)        0           inc_line_drop[0][0]              
__________________________________________________________________________________________________
h11_output (Dense)              (None, 1)            11521       inc_line_flat[0][0]              
==================================================================================================
Total params: 234,849
Trainable params: 234,337
Non-trainable params: 512
__________________________________________________________________________________________________
Accuracy for h_11: 97.85%
Model: "inc_line"
__________________________________________________________________________________________________
Layer (type)                    Output Shape         Param #     Connected to                     
==================================================================================================
inc_line_input (InputLayer)     [(None, 12, 15, 1)]  0                                            
__________________________________________________________________________________________________
inc_line_convA_1 (Conv2D)       (None, 12, 15, 32)   416         inc_line_input[0][0]             
__________________________________________________________________________________________________
inc_line_convB_1 (Conv2D)       (None, 12, 15, 32)   512         inc_line_input[0][0]             
__________________________________________________________________________________________________
inc_line_conc_1 (Concatenate)   (None, 12, 15, 64)   0           inc_line_convA_1[0][0]           
                                                                 inc_line_convB_1[0][0]           
__________________________________________________________________________________________________
inc_line_bnorm_1 (BatchNormaliz (None, 12, 15, 64)   256         inc_line_conc_1[0][0]            
__________________________________________________________________________________________________
inc_line_convA_2 (Conv2D)       (None, 12, 15, 64)   49216       inc_line_bnorm_1[0][0]           
__________________________________________________________________________________________________
inc_line_convB_2 (Conv2D)       (None, 12, 15, 64)   61504       inc_line_bnorm_1[0][0]           
__________________________________________________________________________________________________
inc_line_conc_2 (Concatenate)   (None, 12, 15, 128)  0           inc_line_convA_2[0][0]           
                                                                 inc_line_convB_2[0][0]           
__________________________________________________________________________________________________
inc_line_bnorm_2 (BatchNormaliz (None, 12, 15, 128)  512         inc_line_conc_2[0][0]            
__________________________________________________________________________________________________
inc_line_convA_3 (Conv2D)       (None, 12, 15, 32)   49184       inc_line_bnorm_2[0][0]           
__________________________________________________________________________________________________
inc_line_convB_3 (Conv2D)       (None, 12, 15, 32)   61472       inc_line_bnorm_2[0][0]           
__________________________________________________________________________________________________
inc_line_conc_3 (Concatenate)   (None, 12, 15, 64)   0           inc_line_convA_3[0][0]           
                                                                 inc_line_convB_3[0][0]           
__________________________________________________________________________________________________
inc_line_bnorm_3 (BatchNormaliz (None, 12, 15, 64)   256         inc_line_conc_3[0][0]            
__________________________________________________________________________________________________
inc_line_drop (Dropout)         (None, 12, 15, 64)   0           inc_line_bnorm_3[0][0]           
__________________________________________________________________________________________________
inc_line_flat (Flatten)         (None, 11520)        0           inc_line_drop[0][0]              
__________________________________________________________________________________________________
h11_output (Dense)              (None, 1)            11521       inc_line_flat[0][0]              
==================================================================================================
Total params: 234,849
Trainable params: 234,337
Non-trainable params: 512
__________________________________________________________________________________________________
Training 80% data w/o outliers (line kernel)
Accuracy for h_11: 99.75%
Model: "inc_line"
__________________________________________________________________________________________________
Layer (type)                    Output Shape         Param #     Connected to                     
==================================================================================================
inc_line_input (InputLayer)     [(None, 12, 15, 1)]  0                                            
__________________________________________________________________________________________________
inc_line_convA_1 (Conv2D)       (None, 12, 15, 32)   416         inc_line_input[0][0]             
__________________________________________________________________________________________________
inc_line_convB_1 (Conv2D)       (None, 12, 15, 32)   512         inc_line_input[0][0]             
__________________________________________________________________________________________________
inc_line_conc_1 (Concatenate)   (None, 12, 15, 64)   0           inc_line_convA_1[0][0]           
                                                                 inc_line_convB_1[0][0]           
__________________________________________________________________________________________________
inc_line_bnorm_1 (BatchNormaliz (None, 12, 15, 64)   256         inc_line_conc_1[0][0]            
__________________________________________________________________________________________________
inc_line_convA_2 (Conv2D)       (None, 12, 15, 64)   49216       inc_line_bnorm_1[0][0]           
__________________________________________________________________________________________________
inc_line_convB_2 (Conv2D)       (None, 12, 15, 64)   61504       inc_line_bnorm_1[0][0]           
__________________________________________________________________________________________________
inc_line_conc_2 (Concatenate)   (None, 12, 15, 128)  0           inc_line_convA_2[0][0]           
                                                                 inc_line_convB_2[0][0]           
__________________________________________________________________________________________________
inc_line_bnorm_2 (BatchNormaliz (None, 12, 15, 128)  512         inc_line_conc_2[0][0]            
__________________________________________________________________________________________________
inc_line_convA_3 (Conv2D)       (None, 12, 15, 32)   49184       inc_line_bnorm_2[0][0]           
__________________________________________________________________________________________________
inc_line_convB_3 (Conv2D)       (None, 12, 15, 32)   61472       inc_line_bnorm_2[0][0]           
__________________________________________________________________________________________________
inc_line_conc_3 (Concatenate)   (None, 12, 15, 64)   0           inc_line_convA_3[0][0]           
                                                                 inc_line_convB_3[0][0]           
__________________________________________________________________________________________________
inc_line_bnorm_3 (BatchNormaliz (None, 12, 15, 64)   256         inc_line_conc_3[0][0]            
__________________________________________________________________________________________________
inc_line_drop (Dropout)         (None, 12, 15, 64)   0           inc_line_bnorm_3[0][0]           
__________________________________________________________________________________________________
inc_line_flat (Flatten)         (None, 11520)        0           inc_line_drop[0][0]              
__________________________________________________________________________________________________
h11_output (Dense)              (None, 1)            11521       inc_line_flat[0][0]              
==================================================================================================
Total params: 234,849
Trainable params: 234,337
Non-trainable params: 512
__________________________________________________________________________________________________
Training 30% data w/ outliers (line kernel)
Accuracy for h_11: 94.51%
Model: "inc_line"
…
Training 30% data w/o outliers (line kernel)
Accuracy for h_11: 98.03%
Model: "inc_square"
__________________________________________________________________________________________________
Layer (type)                    Output Shape         Param #     Connected to                     
==================================================================================================
inc_square_input (InputLayer)   [(None, 12, 15, 1)]  0                                            
__________________________________________________________________________________________________
inc_square_convA_1 (Conv2D)     (None, 12, 15, 64)   640         inc_square_input[0][0]           
__________________________________________________________________________________________________
inc_square_convB_1 (Conv2D)     (None, 12, 15, 64)   1664        inc_square_input[0][0]           
__________________________________________________________________________________________________
inc_square_conc_1 (Concatenate) (None, 12, 15, 128)  0           inc_square_convA_1[0][0]         
                                                                 inc_square_convB_1[0][0]         
__________________________________________________________________________________________________
inc_square_bnorm_1 (BatchNormal (None, 12, 15, 128)  512         inc_square_conc_1[0][0]          
__________________________________________________________________________________________________
inc_square_convA_2 (Conv2D)     (None, 12, 15, 64)   73792       inc_square_bnorm_1[0][0]         
__________________________________________________________________________________________________
inc_square_convB_2 (Conv2D)     (None, 12, 15, 64)   204864      inc_square_bnorm_1[0][0]         
__________________________________________________________________________________________________
inc_square_conc_2 (Concatenate) (None, 12, 15, 128)  0           inc_square_convA_2[0][0]         
                                                                 inc_square_convB_2[0][0]         
__________________________________________________________________________________________________
inc_square_bnorm_2 (BatchNormal (None, 12, 15, 128)  512         inc_square_conc_2[0][0]          
__________________________________________________________________________________________________
inc_square_convA_3 (Conv2D)     (None, 12, 15, 32)   36896       inc_square_bnorm_2[0][0]         
__________________________________________________________________________________________________
inc_square_convB_3 (Conv2D)     (None, 12, 15, 32)   102432      inc_square_bnorm_2[0][0]         
__________________________________________________________________________________________________
inc_square_conc_3 (Concatenate) (None, 12, 15, 64)   0           inc_square_convA_3[0][0]         
                                                                 inc_square_convB_3[0][0]         
__________________________________________________________________________________________________
inc_square_bnorm_3 (BatchNormal (None, 12, 15, 64)   256         inc_square_conc_3[0][0]          
__________________________________________________________________________________________________
inc_square_drop (Dropout)       (None, 12, 15, 64)   0           inc_square_bnorm_3[0][0]         
__________________________________________________________________________________________________
inc_square_flat (Flatten)       (None, 11520)        0           inc_square_drop[0][0]            
__________________________________________________________________________________________________
h11_output (Dense)              (None, 1)            11521       inc_square_flat[0][0]            
==================================================================================================
Total params: 433,089
Trainable params: 432,449
Non-trainable params: 640
__________________________________________________________________________________________________
Training 80% data w/ outliers (square kernel)
Accuracy for h_11: 83.02%
Model: "inc_square"
__________________________________________________________________________________________________
Layer (type)                    Output Shape         Param #     Connected to                     
==================================================================================================
inc_square_input (InputLayer)   [(None, 12, 15, 1)]  0                                            
__________________________________________________________________________________________________
inc_square_convA_1 (Conv2D)     (None, 12, 15, 32)   320         inc_square_input[0][0]           
__________________________________________________________________________________________________
inc_square_convB_1 (Conv2D)     (None, 12, 15, 32)   832         inc_square_input[0][0]           
__________________________________________________________________________________________________
inc_square_conc_1 (Concatenate) (None, 12, 15, 64)   0           inc_square_convA_1[0][0]         
                                                                 inc_square_convB_1[0][0]         
__________________________________________________________________________________________________
inc_square_bnorm_1 (BatchNormal (None, 12, 15, 64)   256         inc_square_conc_1[0][0]          
__________________________________________________________________________________________________
inc_square_convA_2 (Conv2D)     (None, 12, 15, 64)   36928       inc_square_bnorm_1[0][0]         
__________________________________________________________________________________________________
inc_square_convB_2 (Conv2D)     (None, 12, 15, 64)   102464      inc_square_bnorm_1[0][0]         
__________________________________________________________________________________________________
inc_square_conc_2 (Concatenate) (None, 12, 15, 128)  0           inc_square_convA_2[0][0]         
                                                                 inc_square_convB_2[0][0]         
__________________________________________________________________________________________________
inc_square_bnorm_2 (BatchNormal (None, 12, 15, 128)  512         inc_square_conc_2[0][0]          
__________________________________________________________________________________________________
inc_square_convA_3 (Conv2D)     (None, 12, 15, 32)   36896       inc_square_bnorm_2[0][0]         
__________________________________________________________________________________________________
inc_square_convB_3 (Conv2D)     (None, 12, 15, 32)   102432      inc_square_bnorm_2[0][0]         
__________________________________________________________________________________________________
inc_square_conc_3 (Concatenate) (None, 12, 15, 64)   0           inc_square_convA_3[0][0]         
                                                                 inc_square_convB_3[0][0]         
__________________________________________________________________________________________________
inc_square_bnorm_3 (BatchNormal (None, 12, 15, 64)   256         inc_square_conc_3[0][0]          
__________________________________________________________________________________________________
inc_square_drop (Dropout)       (None, 12, 15, 64)   0           inc_square_bnorm_3[0][0]         
__________________________________________________________________________________________________
inc_square_flat (Flatten)       (None, 11520)        0           inc_square_drop[0][0]            
__________________________________________________________________________________________________
h11_output (Dense)              (None, 1)            11521       inc_square_flat[0][0]            
==================================================================================================
Total params: 292,417
Trainable params: 291,905
Non-trainable params: 512
__________________________________________________________________________________________________
Training 80% data w/o outliers (square kernel)
Accuracy for h_11: 89.44%
Model: "inc_square"
…
Training 30% data w/ outliers (square kernel)
Accuracy for h_11: 95.31%
Model: "inc_square"
__________________________________________________________________________________________________
Layer (type)                    Output Shape         Param #     Connected to                     
==================================================================================================
inc_square_input (InputLayer)   [(None, 12, 15, 1)]  0                                            
__________________________________________________________________________________________________
inc_square_convA_1 (Conv2D)     (None, 12, 15, 32)   416         inc_square_input[0][0]           
__________________________________________________________________________________________________
inc_square_convB_1 (Conv2D)     (None, 12, 15, 32)   512         inc_square_input[0][0]           
__________________________________________________________________________________________________
inc_square_conc_1 (Concatenate) (None, 12, 15, 64)   0           inc_square_convA_1[0][0]         
                                                                 inc_square_convB_1[0][0]         
__________________________________________________________________________________________________
inc_square_bnorm_1 (BatchNormal (None, 12, 15, 64)   256         inc_square_conc_1[0][0]          
__________________________________________________________________________________________________
inc_square_convA_2 (Conv2D)     (None, 12, 15, 64)   49216       inc_square_bnorm_1[0][0]         
__________________________________________________________________________________________________
inc_square_convB_2 (Conv2D)     (None, 12, 15, 64)   61504       inc_square_bnorm_1[0][0]         
__________________________________________________________________________________________________
inc_square_conc_2 (Concatenate) (None, 12, 15, 128)  0           inc_square_convA_2[0][0]         
                                                                 inc_square_convB_2[0][0]         
__________________________________________________________________________________________________
inc_square_bnorm_2 (BatchNormal (None, 12, 15, 128)  512         inc_square_conc_2[0][0]          
__________________________________________________________________________________________________
inc_square_convA_3 (Conv2D)     (None, 12, 15, 32)   49184       inc_square_bnorm_2[0][0]         
__________________________________________________________________________________________________
inc_square_convB_3 (Conv2D)     (None, 12, 15, 32)   61472       inc_square_bnorm_2[0][0]         
__________________________________________________________________________________________________
inc_square_conc_3 (Concatenate) (None, 12, 15, 64)   0           inc_square_convA_3[0][0]         
                                                                 inc_square_convB_3[0][0]         
__________________________________________________________________________________________________
inc_square_bnorm_3 (BatchNormal (None, 12, 15, 64)   256         inc_square_conc_3[0][0]          
__________________________________________________________________________________________________
inc_square_drop (Dropout)       (None, 12, 15, 64)   0           inc_square_bnorm_3[0][0]         
__________________________________________________________________________________________________
inc_square_flat (Flatten)       (None, 11520)        0           inc_square_drop[0][0]            
__________________________________________________________________________________________________
h11_output (Dense)              (None, 1)            11521       inc_square_flat[0][0]            
==================================================================================================
Total params: 234,849
Trainable params: 234,337
Non-trainable params: 512
__________________________________________________________________________________________________
Training 30% data w/o outliers (square kernel)
Accuracy for h_11: 98.13%
Model: "seq_small"
_________________________________________________________________
Layer (type)                 Output Shape              Param #   
=================================================================
seq_small_input (InputLayer) [(None, 12, 15, 1)]       0         
_________________________________________________________________
seq_small_conv_1 (Conv2D)    (None, 12, 15, 180)       1800      
_________________________________________________________________
seq_small_bnorm_1 (BatchNorm (None, 12, 15, 180)       720       
_________________________________________________________________
seq_small_conv_2 (Conv2D)    (None, 12, 15, 100)       162100    
_________________________________________________________________
seq_small_bnorm_2 (BatchNorm (None, 12, 15, 100)       400       
_________________________________________________________________
seq_small_conv_3 (Conv2D)    (None, 12, 15, 40)        36040     
_________________________________________________________________
seq_small_bnorm_3 (BatchNorm (None, 12, 15, 40)        160       
_________________________________________________________________
seq_small_conv_4 (Conv2D)    (None, 12, 15, 20)        7220      
_________________________________________________________________
seq_small_bnorm_4 (BatchNorm (None, 12, 15, 20)        80        
_________________________________________________________________
seq_small_drop (Dropout)     (None, 12, 15, 20)        0         
_________________________________________________________________
seq_small_flat (Flatten)     (None, 3600)              0         
_________________________________________________________________
h11_output (Dense)           (None, 1)                 3601      
=================================================================
Total params: 212,121
Trainable params: 211,441
Non-trainable params: 680
_________________________________________________________________
Training 80% data w/ outliers (small kernel)
Accuracy for h_11: 0.25%
Model: "seq_small"
_________________________________________________________________
Layer (type)                 Output Shape              Param #   
=================================================================
seq_small_input (InputLayer) [(None, 12, 15, 1)]       0         
_________________________________________________________________
seq_small_conv_1 (Conv2D)    (None, 12, 15, 180)       1800      
_________________________________________________________________
seq_small_bnorm_1 (BatchNorm (None, 12, 15, 180)       720       
_________________________________________________________________
seq_small_conv_2 (Conv2D)    (None, 12, 15, 100)       162100    
_________________________________________________________________
seq_small_bnorm_2 (BatchNorm (None, 12, 15, 100)       400       
_________________________________________________________________
seq_small_conv_3 (Conv2D)    (None, 12, 15, 40)        36040     
_________________________________________________________________
seq_small_bnorm_3 (BatchNorm (None, 12, 15, 40)        160       
_________________________________________________________________
seq_small_conv_4 (Conv2D)    (None, 12, 15, 20)        7220      
_________________________________________________________________
seq_small_bnorm_4 (BatchNorm (None, 12, 15, 20)        80        
_________________________________________________________________
seq_small_drop (Dropout)     (None, 12, 15, 20)        0         
_________________________________________________________________
seq_small_flat (Flatten)     (None, 3600)              0         
_________________________________________________________________
h11_output (Dense)           (None, 1)                 3601      
=================================================================
Total params: 212,121
Trainable params: 211,441
Non-trainable params: 680
_________________________________________________________________
Training 80% data w/o outliers (small kernel)
Accuracy for h_11: 0.00%
Model: "seq_small"
_________________________________________________________________
Layer (type)                 Output Shape              Param #   
=================================================================
seq_small_input (InputLayer) [(None, 12, 15, 1)]       0         
_________________________________________________________________
seq_small_conv_1 (Conv2D)    (None, 12, 15, 180)       1800      
_________________________________________________________________
seq_small_bnorm_1 (BatchNorm (None, 12, 15, 180)       720       
_________________________________________________________________
seq_small_conv_2 (Conv2D)    (None, 12, 15, 100)       162100    
_________________________________________________________________
seq_small_bnorm_2 (BatchNorm (None, 12, 15, 100)       400       
_________________________________________________________________
seq_small_conv_3 (Conv2D)    (None, 12, 15, 40)        36040     
_________________________________________________________________
seq_small_bnorm_3 (BatchNorm (None, 12, 15, 40)        160       
_________________________________________________________________
seq_small_conv_4 (Conv2D)    (None, 12, 15, 20)        7220      
_________________________________________________________________
seq_small_bnorm_4 (BatchNorm (None, 12, 15, 20)        80        
_________________________________________________________________
seq_small_drop (Dropout)     (None, 12, 15, 20)        0         
_________________________________________________________________
seq_small_flat (Flatten)     (None, 3600)              0         
_________________________________________________________________
h11_output (Dense)           (None, 1)                 3601      
=================================================================
Total params: 212,121
Trainable params: 211,441
Non-trainable params: 680
_________________________________________________________________
Training 30% data w/ outliers (small kernel)
Accuracy for h_11: 0.32%
Model: "seq_small"
_________________________________________________________________
Layer (type)                 Output Shape              Param #   
=================================================================
seq_small_input (InputLayer) [(None, 12, 15, 1)]       0         
_________________________________________________________________
seq_small_conv_1 (Conv2D)    (None, 12, 15, 180)       1800      
_________________________________________________________________
seq_small_bnorm_1 (BatchNorm (None, 12, 15, 180)       720       
_________________________________________________________________
seq_small_conv_2 (Conv2D)    (None, 12, 15, 100)       162100    
_________________________________________________________________
seq_small_bnorm_2 (BatchNorm (None, 12, 15, 100)       400       
_________________________________________________________________
seq_small_conv_3 (Conv2D)    (None, 12, 15, 40)        36040     
_________________________________________________________________
seq_small_bnorm_3 (BatchNorm (None, 12, 15, 40)        160       
_________________________________________________________________
seq_small_conv_4 (Conv2D)    (None, 12, 15, 20)        7220      
_________________________________________________________________
seq_small_bnorm_4 (BatchNorm (None, 12, 15, 20)        80        
_________________________________________________________________
seq_small_drop (Dropout)     (None, 12, 15, 20)        0         
_________________________________________________________________
seq_small_flat (Flatten)     (None, 3600)              0         
_________________________________________________________________
h11_output (Dense)           (None, 1)                 3601      
=================================================================
Total params: 212,121
Trainable params: 211,441
Non-trainable params: 680
_________________________________________________________________
Training 30% data w/o outliers (small kernel)
Accuracy for h_11: 0.00%
Model: "seq_large"
_________________________________________________________________
Layer (type)                 Output Shape              Param #   
=================================================================
seq_large_input (InputLayer) [(None, 12, 15, 1)]       0         
_________________________________________________________________
seq_large_conv_1 (Conv2D)    (None, 12, 15, 180)       4680      
_________________________________________________________________
seq_large_bnorm_1 (BatchNorm (None, 12, 15, 180)       720       
_________________________________________________________________
seq_large_conv_2 (Conv2D)    (None, 12, 15, 100)       450100    
_________________________________________________________________
seq_large_bnorm_2 (BatchNorm (None, 12, 15, 100)       400       
_________________________________________________________________
seq_large_conv_3 (Conv2D)    (None, 12, 15, 40)        100040    
_________________________________________________________________
seq_large_bnorm_3 (BatchNorm (None, 12, 15, 40)        160       
_________________________________________________________________
seq_large_conv_4 (Conv2D)    (None, 12, 15, 20)        20020     
_________________________________________________________________
seq_large_bnorm_4 (BatchNorm (None, 12, 15, 20)        80        
_________________________________________________________________
seq_large_drop (Dropout)     (None, 12, 15, 20)        0         
_________________________________________________________________
seq_large_flat (Flatten)     (None, 3600)              0         
_________________________________________________________________
h11_output (Dense)           (None, 1)                 3601      
=================================================================
Total params: 579,801
Trainable params: 579,121
Non-trainable params: 680
_________________________________________________________________
Training 80% data w/ outliers (large kernel)
Accuracy for h_11: 88.21%
Model: "seq_large"
_________________________________________________________________
Layer (type)                 Output Shape              Param #   
=================================================================
seq_large_input (InputLayer) [(None, 12, 15, 1)]       0         
_________________________________________________________________
seq_large_conv_1 (Conv2D)    (None, 12, 15, 180)       4680      
_________________________________________________________________
seq_large_bnorm_1 (BatchNorm (None, 12, 15, 180)       720       
_________________________________________________________________
seq_large_conv_2 (Conv2D)    (None, 12, 15, 100)       450100    
_________________________________________________________________
seq_large_bnorm_2 (BatchNorm (None, 12, 15, 100)       400       
_________________________________________________________________
seq_large_conv_3 (Conv2D)    (None, 12, 15, 40)        100040    
_________________________________________________________________
seq_large_bnorm_3 (BatchNorm (None, 12, 15, 40)        160       
_________________________________________________________________
seq_large_conv_4 (Conv2D)    (None, 12, 15, 20)        20020     
_________________________________________________________________
seq_large_bnorm_4 (BatchNorm (None, 12, 15, 20)        80        
_________________________________________________________________
seq_large_drop (Dropout)     (None, 12, 15, 20)        0         
_________________________________________________________________
seq_large_flat (Flatten)     (None, 3600)              0         
_________________________________________________________________
h11_output (Dense)           (None, 1)                 3601      
=================================================================
Total params: 579,801
Trainable params: 579,121
Non-trainable params: 680
_________________________________________________________________
Training 80% data w/o outliers (large kernel)
Accuracy for h_11: 0.00%
Model: "seq_large"
_________________________________________________________________
Layer (type)                 Output Shape              Param #   
=================================================================
seq_large_input (InputLayer) [(None, 12, 15, 1)]       0         
_________________________________________________________________
seq_large_conv_1 (Conv2D)    (None, 12, 15, 180)       4680      
_________________________________________________________________
seq_large_bnorm_1 (BatchNorm (None, 12, 15, 180)       720       
_________________________________________________________________
seq_large_conv_2 (Conv2D)    (None, 12, 15, 100)       450100    
_________________________________________________________________
seq_large_bnorm_2 (BatchNorm (None, 12, 15, 100)       400       
_________________________________________________________________
seq_large_conv_3 (Conv2D)    (None, 12, 15, 40)        100040    
_________________________________________________________________
seq_large_bnorm_3 (BatchNorm (None, 12, 15, 40)        160       
_________________________________________________________________
seq_large_conv_4 (Conv2D)    (None, 12, 15, 20)        20020     
_________________________________________________________________
seq_large_bnorm_4 (BatchNorm (None, 12, 15, 20)        80        
_________________________________________________________________
seq_large_drop (Dropout)     (None, 12, 15, 20)        0         
_________________________________________________________________
seq_large_flat (Flatten)     (None, 3600)              0         
_________________________________________________________________
h11_output (Dense)           (None, 1)                 3601      
=================================================================
Total params: 579,801
Trainable params: 579,121
Non-trainable params: 680
_________________________________________________________________
Training 30% data w/ outliers (large kernel)
Accuracy for h_11: 73.47%
Model: "seq_large"
_________________________________________________________________
Layer (type)                 Output Shape              Param #   
=================================================================
seq_large_input (InputLayer) [(None, 12, 15, 1)]       0         
_________________________________________________________________
seq_large_conv_1 (Conv2D)    (None, 12, 15, 180)       4680      
_________________________________________________________________
seq_large_bnorm_1 (BatchNorm (None, 12, 15, 180)       720       
_________________________________________________________________
seq_large_conv_2 (Conv2D)    (None, 12, 15, 100)       450100    
_________________________________________________________________
seq_large_bnorm_2 (BatchNorm (None, 12, 15, 100)       400       
_________________________________________________________________
seq_large_conv_3 (Conv2D)    (None, 12, 15, 40)        100040    
_________________________________________________________________
seq_large_bnorm_3 (BatchNorm (None, 12, 15, 40)        160       
_________________________________________________________________
seq_large_conv_4 (Conv2D)    (None, 12, 15, 20)        20020     
_________________________________________________________________
seq_large_bnorm_4 (BatchNorm (None, 12, 15, 20)        80        
_________________________________________________________________
seq_large_drop (Dropout)     (None, 12, 15, 20)        0         
_________________________________________________________________
seq_large_flat (Flatten)     (None, 3600)              0         
_________________________________________________________________
h11_output (Dense)           (None, 1)                 3601      
=================================================================
Total params: 579,801
Trainable params: 579,121
Non-trainable params: 680
_________________________________________________________________
Training 30% data w/o outliers (large kernel)
Accuracy for h_11: 0.00%
